checkpoint_navigation_dqn.pth (torch_old, 28463 bytes, 6 tensors)

fc1.weight f4 [64, 37]
000000 00 7e 0c bf 15 9b 96 3e b9 d1 ab 3d 7f 9a 45 be
       -0.5487976 0.29415193 0.08389611 -0.19297217
000010 cd 20 f4 be 62 a6 21 bf 10 4f 2b 3e a0 68 9d 3e
       -0.47681275 -0.63144505 0.16729379 0.30743885
000020 66 dc d7 be 92 2e 22 bf 6e 99 53 3e cc 79 6f 3c
       -0.42160338 -0.6335231 0.20663998 0.014616441
000030 ea f8 eb 3c 06 4f 16 3d 16 5c 06 be 17 b6 0c bf
       0.028805215 0.036696456 -0.13121065 -0.5496535
000040 67 f9 11 3e 54 7e 02 3e 94 fb cb be 88 2c 87 be
       0.14255296 0.12743503 -0.39840376 -0.26401162
000050 cb 79 fa bd 09 4d 5d bd 90 b5 fb 3d 75 52 80 bd
       -0.122302614 -0.054028545 0.1229049 -0.062657274
000060 7f 0c 11 bd da e6 4a be e1 22 72 bd f0 c3 6b 3d
       -0.035412308 -0.19814625 -0.059115294 0.057559907
000070 37 c9 9d be 62 ce 96 be bb d3 c6 be 81 26 b9 3d
       -0.30817577 -0.29454333 -0.38833413 0.09040547
000080 77 7a a2 3d 9c ec 41 3e 6a c0 0d be 82 b8 40 bd
       0.079335146 0.18937916 -0.13842931 -0.04705096
000090 9e e7 bd 3a 4e e2 55 3d 5a d9 9d 3d 8a 60 ef 3c
       0.0014488583 0.052217774 0.07707472 0.029220838
0000a0 56 cd 7a 3e b1 ed 2f 3d 7a 0e 7a 3d e1 0f 52 3e
       0.24492392 0.04295129 0.061048962 0.2051387
0000b0 c1 79 c0 3d 0c d6 0f 3e 76 0c 13 bd e1 d9 b3 3d
       0.09398223 0.14046496 -0.035900556 0.087817915
0000c0 88 7e c8 bc fd 3d 57 3d 4f b8 e4 bd 97 1e 90 be
       -0.024474397 0.05254935 -0.111679666 -0.28148338
0000d0 36 d0 1a 3c f5 8c e9 3c b9 81 00 bb 1d 7a 75 3e
       0.009449055 0.028509596 -0.001960857 0.23972364
0000e0 4e 2c 98 3d ba 74 02 3e cf bd 20 3e ef f9 8e bb
       0.074303254 0.1273984 0.15697406 -0.0043632905
0000f0 95 a5 69 be ad 50 94 be cb dd 71 3d 79 28 08 3d
       -0.22817071 -0.289678 0.05904941 0.033241723
000100 eb 8b ef bd ff a5 08 3e 23 91 43 3e a1 03 46 3d
       -0.11696609 0.13344572 0.19098334 0.048343305
000110 85 e7 a6 bd 56 69 50 bd a4 d1 68 3c 45 4b fd 3d
       -0.081496276 -0.050881706 0.0142101385 0.12367872
000120 cf 3f 30 3c 59 64 24 bd e1 78 8a bd 4d 04 f9 bd
       0.010757401 -0.04013476 -0.06761337 -0.121590234
000130 12 fa a6 bd 1e 51 b7 bd 1c 54 c5 bd 08 fe df bd
       -0.08153166 -0.08951019 -0.09635183 -0.109371245
000140 39 eb 21 3e b3 5a 09 3e eb e2 7f 3e 0c 2f cb 3e
       0.15812387 0.13413505 0.24988906 0.3968433
000150 97 05 f9 3d 54 41 1f 3e 5c 3d 98 3d 12 4e 72 3c
       0.12159269 0.15552264 0.07433578 0.014789121
000160 c9 a0 1e be 63 39 d8 3d dc 2e ce bb de 54 05 3e
       -0.15491022 0.10557821 -0.006292207 0.13020656
000170 08 45 a3 3d d8 c6 e2 bc cb 2a 9d bd 2b 55 db 3d
       0.07972151 -0.027682707 -0.07674178 0.10709604
000180 af e6 e2 3c 96 bf 56 3d 81 ec 33 bd 95 96 a1 bd
       0.02769789 0.052428804 -0.04392672 -0.07890049
000190 37 3a c8 3c 57 7e a8 3d 2b 71 a4 bd 66 79 7d bd
       0.024441822 0.082272224 -0.080293976 -0.061883353
0001a0 42 5e 8a 3e b0 44 35 bf 85 7f c0 be cb 9c fb be
       0.27025038 -0.70807934 -0.3759729 -0.4914306
0001b0 3f 21 03 c0 14 0b 31 bc 87 fc 2f 38 da b2 34 3c
       -2.0489042 -0.010805864 4.1958436e-05 0.01102897
0001c0 fe 5d f1 bc e8 4b 45 bd 58 0e f3 bc 00 33 a9 bd
       -0.029463764 -0.048168093 -0.029669926 -0.082616806
0001d0 31 aa 2d bd 99 2c 78 bd cb 51 7c bd c0 62 81 bc
       -0.042398635 -0.060589407 -0.06160144 -0.015794158
0001e0 93 7a d6 3c d9 5f b1 bd 93 d1 29 3d 7a 81 76 bc
       0.026181495 -0.086608596 0.04145963 -0.015045518
0001f0 f0 f9 28 bc 66 94 cf bc 0f 9f a8 3d f3 06 2f be
       -0.010313496 -0.025339317 0.08233463 -0.17092495
000200 ec 7d 32 3d 55 83 44 3e 57 51 1e 3e 3f 56 c6 3e
       0.04357712 0.19190724 0.15460716 0.38737676
000210 82 fd dc be 4d 33 93 be ea 7a f8 be 6b cf d5 bf
       -0.4316216 -0.28750077 -0.48531276 -1.6703924
000220 3a db 98 3d 72 16 4d be 8b 0b d3 bd 5c 5a 3c 3e
       0.07463689 -0.20028093 -0.10304936 0.18393844
000230 36 6a 6a 3e ea 43 ad bd 12 df 14 be 5b a8 e3 bc
       0.22892079 -0.08460219 -0.1453822 -0.02779024
000240 bf 64 41 3d 6f 27 63 3e 6e ec 83 bd 50 8d a3 3c
       0.04721522 0.22183011 -0.0644158 0.019964844
000250 db bb 33 bd 53 a9 7e be 0f d2 0d 3d e2 7a 98 bd
       -0.043880325 -0.2486928 0.034624156 -0.07445313
000260 2a 5e 17 be a3 35 92 be 98 1d ef bc 64 73 f4 3c
       -0.14782014 -0.28556547 -0.029188916 0.029840179
000270 94 42 11 bc 0c 11 1c be 37 55 a9 3c 28 75 1d bc
       -0.008865971 -0.15240878 0.020670516 -0.009610452
000280 06 a6 c1 bc 06 e5 73 bd 9a 84 15 3d 17 3d 9a bd
       -0.023638736 -0.059544586 0.03650341 -0.07531183
000290 98 ec a8 be e3 c2 90 bd f9 61 2d be af e4 d1 bd
       -0.32993007 -0.07068422 -0.16931905 -0.10248696
0002a0 79 65 fc bd c1 86 63 be 50 f7 b5 bd f1 28 8c 3c
       -0.12324042 -0.22219373 -0.08885062 0.017109366
0002b0 3b 00 5d 3d 3b c5 c2 3c 0c fa 0d be 61 46 db be
       0.053955298 0.023775687 -0.13864917 -0.42827132
0002c0 18 b9 92 bd 2a b2 c4 3d e4 73 88 3d 96 34 3d be
       -0.0716421 0.096042946 0.066627294 -0.18477091
0002d0 20 d1 af bd f5 42 20 be 68 5b 89 bd 2e e7 c1 bd
       -0.08584809 -0.15650542 -0.067068875 -0.09467922
0002e0 41 29 c3 3d 4d db c2 3d 67 12 d3 3d 34 35 9f 3d
       0.09529353 0.095144846 0.10306244 0.077738196
0002f0 ee 9f 90 3d ab fb 99 bc bc 8b 01 3f d1 bb 02 bf
       0.07061754 -0.018796762 0.5060384 -0.51067835
000300 89 1f 26 bf 53 e2 16 bf b1 77 0b c0 7e 18 a8 3d
       -0.6489187 -0.58939093 -2.1791804 0.082077965
000310 ba 13 7b 3d 13 70 94 3d 9b 77 9f 3d 15 14 f2 bc
       0.06129811 0.07247939 0.07786485 -0.029550591
000320 57 52 3f 3d cd 3f c5 3c c8 d2 6e 3d 1b fa f1 3d
       0.046709385 0.024078274 0.058306485 0.11815282
000330 5d 3e bd 3c 15 ed a8 bc b2 90 6e 3b 16 1d 80 3c
       0.023101026 -0.020620862 0.0036402163 0.01563887
000340 5e 07 eb 3c 62 54 6f 3a 1d 73 c1 3d f4 ff eb 3d
       0.028690036 0.00091297005 0.09445784 0.115234286
000350 d6 c7 a3 3d 78 ae ef 3d e5 68 94 3d 47 55 05 3e
       0.079971 0.11703199 0.072465695 0.13020812
000360 e3 00 05 3e 5a 74 22 3e 0d 8d 2a 3e 26 28 06 3c
       0.1298862 0.15864697 0.16655369 0.008188283
000370 3b 81 16 bb f6 57 b8 3b b4 9b 25 3e eb ad 73 be
       -0.002296521 0.00562572 0.16172677 -0.23796813
000380 0e 44 2f be c5 1b a7 bd 4b a6 83 be 56 d0 70 bd
       -0.17115805 -0.081595935 -0.2571281 -0.058792435
000390 9b c9 d3 3d 12 f2 00 3e 24 18 90 be e3 df 99 bf
       0.103411876 0.12592342 -0.28143418 -1.202145
0003a0 dd c1 ac 3d fd 34 b6 3d 6b cb d9 3d c0 8f ca 3c
       0.08435414 0.088968255 0.10634502 0.024726748
0003b0 a4 2f 04 3e 8c f2 b0 bd d0 fa 8d be 2b 05 49 3e
       0.12908798 -0.08640012 -0.27730417 0.19630878
0003c0 75 56 8d be d7 2c 12 bf 75 99 fd bb 16 07 52 3e
       -0.27605024 -0.5709967 -0.007739241 0.20510516
0003d0 64 0b 4a bd a4 c7 7c be 7e af 20 bf 8e 16 34 3d
       -0.04932727 -0.24685532 -0.6276778 0.043966822
0003e0 45 03 76 3c 37 db 42 3e cb f2 da be a5 3a a0 bf
       0.015015428 0.19028936 -0.4276336 -1.2517897
0003f0 54 01 77 bd 91 bf 10 3e 27 11 d7 3d 48 41 00 bf
       -0.060304 0.14135577 0.105013184 -0.5009961

fc1.bias f4 [64]
000000 88 4c e4 bd 57 5a 29 3e 27 75 35 3e 90 c4 13 bb
       -0.1114741 0.16538368 0.17720471 -0.002254758
000010 8b 04 91 be 8a 76 7f 3d d5 60 ab 3c 9e 7c 01 bd
       -0.2832378 0.062368907 0.020920197 -0.031612985
000020 34 b1 23 be 8b f3 84 3d ed 4f 19 be de b0 a8 bd
       -0.15985566 0.06491765 -0.14971896 -0.0823686
000030 3a f2 16 be ec a6 da bd b4 f3 4a be 83 09 ff 3a
       -0.1474084 -0.10676369 -0.19819528 0.0019457791
000040 ab de 5a 3d 2d f3 b5 3d 1b a9 a2 3e 48 ec 9d bd
       0.05343501 0.08884273 0.31769642 -0.07711083
000050 e3 12 d0 3d 68 25 5e bd 6b aa a1 3c 27 87 81 3d
       0.10159852 -0.054234892 0.019734582 0.063246064
000060 8e ad d4 bd 9a ee 57 be 98 67 20 be 35 58 45 be
       -0.103846654 -0.21087113 -0.15664518 -0.1927193
000070 f4 ad 37 3d d4 04 c2 3d 82 d8 ef bc 5c d7 f8 bd
       0.04484363 0.09473577 -0.029278044 -0.121504515
000080 63 41 54 be 4d 1c 0b bd da 38 af 3c dc e9 db 3c
       -0.20728068 -0.033962537 0.021389414 0.026844911
000090 b6 4e ff 3d 09 ef 54 bd cf e6 91 3e 31 cc 72 be
       0.12466185 -0.051985774 0.28496405 -0.23710705
0000a0 8b a7 da bd 96 4b 85 3d 9e 7a 1b be c7 01 53 3d
       -0.106764875 0.065085575 -0.15183493 0.051515367
0000b0 91 92 cd 3d 46 16 14 3d 5a 5b 51 be 91 54 1a 3d
       0.10037721 0.036154054 -0.20445004 0.037678305
0000c0 bb bd 11 be 7b b6 97 bc e8 a8 ca bd b0 f5 82 3d
       -0.14232533 -0.01851963 -0.098954976 0.063945174
0000d0 d7 ab 2b be 77 16 90 bd 80 44 28 3d ef 23 dc 3c
       -0.1676477 -0.07035535 0.04108095 0.026872603
0000e0 03 b6 d0 3d d4 ca 46 3b 6c dc 19 bd 91 69 df bd
       0.10190966 0.0030333297 -0.037563726 -0.10908807
0000f0 89 57 50 bd 90 8e 91 bd c5 7d e3 3b 01 7f 9a be
       -0.05086473 -0.0710727 0.006942483 -0.3017502

fc2.weight f4 [64, 64]
000000 2d 5b 8b bd 95 0e 63 3e 8b 51 f0 bb 78 0c 7c 3e
       -0.068045 0.22173531 -0.0073339394 0.24614131
000010 dd ea a5 3c e7 1c 42 3e 7b c7 86 3d 82 48 b2 bd
       0.020253593 0.18956338 0.06581017 -0.08705236
000020 de 10 a3 bc 5a a3 8f 3d e9 41 19 3d 5f fb 1a be
       -0.019905504 0.07013579 0.037416372 -0.15134953
000030 3a be 4f bd ef 8f 59 be aa 98 d1 3d 1e 7a ed 3d
       -0.050718524 -0.21246313 0.102341965 0.11595558
000040 2b c3 65 3d 57 34 9a 3c aa 29 48 3e 34 c0 b2 3e
       0.05609433 0.018823786 0.19547144 0.34912264
000050 7e d8 40 3e cd 58 d1 bd 2e b2 72 3d 23 5f d4 3d
       0.18832585 -0.102220155 0.059251957 0.103697084
000060 ab f4 15 3e 86 51 c3 3d 68 08 cb 3d 36 80 76 bd
       0.14644115 0.09537034 0.09913713 -0.060180865
000070 b7 27 df b8 3c 20 be bd 30 80 d9 3e 0c e9 95 3d
       -0.00010640866 -0.09283492 0.42480612 0.07319841
000080 6a f8 f9 3b 8a ac b0 bd 22 0c 89 3e 62 7c 2a 3d
       0.00762849 -0.08626659 0.2676707 0.041622527
000090 f0 04 4e 3e a9 19 22 bc bd 07 19 3e 6d e7 c1 3b
       0.20119071 -0.009893813 0.14944358 0.0059174807
0000a0 c7 00 08 bd 00 12 14 3e 5b d1 13 bc f9 0d 1f bd
       -0.033203866 0.14459991 -0.009022082 -0.038831685
0000b0 17 f7 06 3e 0d bd a8 3d 98 db 43 3d b5 c6 70 3d
       0.13180195 0.082391836 0.047816843 0.05878325
0000c0 c0 4a 21 bc 1c 4a 9c 3d 1f ee f1 3d 51 40 b8 bc
       -0.009844482 0.07631323 0.11812996 -0.022491606
0000d0 e1 07 67 3d b7 bd 5e be cf f6 a2 be 59 c1 c0 3d
       0.056404 -0.21752058 -0.31828925 0.09411878
0000e0 79 39 e1 3d 9a a9 87 3c bb 22 03 3c 2d 06 36 3e
       0.1099729 0.016560365 0.008003886 0.17775793
0000f0 a3 16 8d bd e7 b7 1f be f8 dc af bc b5 8e 8b 3c
       -0.06889083 -0.15597497 -0.02146767 0.017035821
000100 13 f1 99 3d 81 33 b9 3d 6c ea 8b be 08 95 96 3d
       0.075166844 0.09043027 -0.27327287 0.07352644
000110 57 63 bb 3e 82 1d 05 be a6 2f 49 3d f8 a4 8d 3e
       0.36599228 -0.12999538 0.049117707 0.27664924
000120 9b ff 1c 3e cd ee e4 be 32 53 12 3d 56 4c 3c 3d
       0.15331881 -0.4471344 0.035723872 0.045971237
000130 62 de c8 bd 3d 1f 80 3d 99 58 e1 be 99 36 86 3e
       -0.09808041 0.06255958 -0.44012907 0.2621353
000140 53 d0 bc bc 55 a5 ad be 1b 88 30 3d 03 63 66 bd
       -0.023048555 -0.339152 0.04309855 -0.05624677
000150 70 af fb be 23 1c 1b be 53 9d 18 3d f7 8a 2a 3d
       -0.49157286 -0.15147452 0.03725941 0.041636433
000160 c7 b0 47 be 27 ba ac bd 06 72 a6 be 95 2d 96 3d
       -0.19501029 -0.08433943 -0.32508868 0.07332913
000170 ea 9d b3 bd 1a 88 85 3e 8a 86 8e 3e a4 b9 d2 3e
       -0.08770354 0.260804 0.2783702 0.41157258
000180 fd 4e 01 bf df ca 77 3b d6 db 8d 3d ca ec 33 3e
       -0.5051115 0.003781013 0.06926696 0.17570797
000190 e3 ef 85 be 32 60 ad be 12 f3 4d be 72 7f 80 3e
       -0.26159582 -0.33862454 -0.20112255 0.25097233
0001a0 0e e1 94 3d e4 a2 0c bd d4 55 d0 bb 44 91 94 bd
       0.07269488 -0.034335032 -0.0063578878 -0.0725427
0001b0 db 04 90 be 25 bb 90 3e 81 94 cd 3d 10 03 6b 3e
       -0.28128704 0.2826778 0.100380905 0.22950387
0001c0 97 34 0f be 80 5f f0 3e dc 6e a1 be a5 15 c1 be
       -0.13984905 0.4694786 -0.31529891 -0.37711826
0001d0 ba 48 c5 be e2 e8 3c 3d c7 46 e8 bd 20 fc f8 bd
       -0.38532048 0.04612053 -0.11341625 -0.12157464
0001e0 fb b0 7e be 1f ac f5 3d c7 0a a4 be b3 10 9c be
       -0.248722 0.1199572 -0.32039472 -0.3048149
0001f0 75 4a 1a be 07 d0 8f 3c 26 5e 17 be 1c bf fc bd
       -0.15067466 0.01755525 -0.14782009 -0.12341139
000200 a5 32 f6 3d a5 f7 40 3c 7b 2f 25 3e 61 b1 b9 3c
       0.120213784 0.011777793 0.16131394 0.022667589
000210 45 74 15 be 99 10 c4 3e 38 97 1d be 81 c0 28 3d
       -0.14595135 0.38293913 -0.15389717 0.04119921
000220 66 ba e4 3d b4 c6 0f 3e 25 28 6f 3c 9b 28 1f 3d
       0.11168365 0.14040643 0.014596974 0.038857084
000230 cb 47 dd bd f2 b5 11 be a0 ef 22 3d 20 f5 a8 bc
       -0.10804709 -0.14229563 0.039779305 -0.020624697
000240 79 a9 4c 3d 94 04 93 bc 00 40 b3 bd fe b7 74 3e
       0.04996631 -0.017946519 -0.087524414 0.23898312
000250 82 3f 03 be a0 fa 23 3e 26 af 7e 3e 9e da 50 bd
       -0.12817195 0.16013575 0.24871501 -0.05098974
000260 a9 97 a8 bc 6e 49 7d bc ea cc 78 bd bb 04 f4 bd
       -0.02058013 -0.0154594015 -0.060742296 -0.11914965
000270 d1 bc 01 be 01 49 7a be c6 15 29 3e 7a 36 f6 bc
       -0.12669684 -0.24441911 0.16512212 -0.030055273
000280 fd e0 1a bd ba dd cf bd 8d d0 af 3d b5 aa 48 be
       -0.03781222 -0.10149713 0.085847 -0.1959637
000290 e0 eb 12 3e 48 5d 47 3e 97 2a 0f 3e a5 fb ce bd
       0.14347792 0.19469178 0.1398109 -0.10106591
0002a0 82 8e d3 bd ab 35 c1 bd 7f a4 66 3d 6e fb 12 bd
       -0.103299156 -0.094340645 0.05630922 -0.035884313
0002b0 c9 46 29 bd a1 0f cf bd 0f 53 c3 3d 8c e0 14 3e
       -0.04132727 -0.10110403 0.095373265 0.14538783
0002c0 a4 09 93 bd a5 60 33 3e 68 82 65 3e 24 38 80 3d
       -0.07179573 0.17517336 0.22413027 0.06260708
0002d0 3e f2 93 3c 69 fb 2e be 24 e7 5f be 1e 3c 4c 3e
       0.018059846 -0.17088093 -0.21865517 0.19944808
0002e0 51 1a 77 3e 5b cb 4d 3c 6e 88 d4 3d 82 e0 4d be
       0.24131133 0.012560691 0.103775844 -0.20105174
0002f0 15 c5 2a bd 3b 09 13 be 48 8f b4 bd e1 65 de bd
       -0.04169186 -0.1435899 -0.08816391 -0.108592756
000300 79 54 ac bd 3b 40 99 3d 82 da b9 bd 97 29 05 3d
       -0.084145494 0.07482954 -0.0907488 0.032510366
000310 88 e9 ec 3c af e7 be bd 04 04 83 3d a8 ac 55 bd
       0.02891995 -0.09321534 0.0639725 -0.05216661
000320 08 14 3a 3d be 9c 9a 3d 9b be 80 bd 33 11 9d bd
       0.04542926 0.075494274 -0.06286355 -0.07669296
000330 23 84 b7 3d 70 0e 17 bc 43 b1 af bc f9 4d 51 3d
       0.0896075 -0.009219751 -0.02144683 0.05109975
000340 e1 99 3d bd 5a 8b f9 bc 61 b4 44 3d 13 35 10 3d
       -0.04628933 -0.030461956 0.048023585 0.035206866
000350 93 e4 11 be c8 13 05 3d d8 74 4b bd 9d e7 cb bd
       -0.1424735 0.032489568 -0.049671978 -0.09956286
000360 c4 26 9b 3d b1 72 df bc 97 83 fa bd 0c fa 87 bc
       0.07575753 -0.027276369 -0.1223213 -0.016598724
000370 cd b9 27 3c e5 4e 9e bd f2 6b be bd 13 d4 e9 bd
       0.010237169 -0.07729892 -0.09297933 -0.11417403
000380 e5 4f e1 ba c3 a3 79 bd dc 6e b8 bc 17 af 8c bd
       -0.0017189948 -0.06094719 -0.0225138 -0.06869333
000390 1f 8e d3 bd ae 10 33 bd 3a f3 f4 bd 52 4f 4f bd
       -0.10329842 -0.04371708 -0.11960454 -0.050612755
0003a0 1e 5a 07 bd 6f b4 25 be 0a b3 b3 bd 7b 79 91 3d
       -0.033044927 -0.16182111 -0.08774383 0.07103249
0003b0 92 26 02 bb 18 6f 62 bd 9c 28 b5 bb 8b 5f 89 3d
       -0.0019859415 -0.05528173 -0.0055285227 0.067076765
0003c0 a0 56 f5 bd a0 40 a4 bd 56 31 d9 bd 68 cd d5 bc
       -0.11979413 -0.08020139 -0.10605113 -0.026098922
0003d0 0c a0 13 bb 96 80 c7 bd e7 fb a5 3d f2 3c c3 bd
       -0.0022525815 -0.09741323 0.08104687 -0.09533109
0003e0 08 7b d2 3d 01 54 e5 bd 9d 24 89 bd 86 06 1c bc
       0.102773726 -0.11197663 -0.066964366 -0.00952304
0003f0 73 c2 7b bd d8 61 0c 3e 93 ee c4 bd ce de db ba
       -0.061464738 0.137092 -0.09615817 -0.0016774775

fc2.bias f4 [64]
000000 da 4d 19 3f ba 2c 59 bd 34 cc 8e 3e ae 0f 99 bd
       0.5988442 -0.05302117 0.2789017 -0.07473694
000010 9c ce 85 bd 30 5f 37 bd 04 78 b9 bd 6e 44 80 3e
       -0.06533548 -0.044768512 -0.09056094 0.25052208
000020 71 5f 85 3e 72 77 cb 3d eb ec 31 be f5 08 c9 3c
       0.2604938 0.09934892 -0.17375533 0.024540404
000030 95 9a bd 3c d7 c8 e1 bc ab c7 8a 3d fb 61 f4 bd
       0.023145 -0.027561588 0.06776365 -0.11932751
000040 42 32 87 be 49 81 e9 3e b8 a2 8f bd 58 51 f9 3d
       -0.2640553 0.4560645 -0.07013458 0.12173718
000050 fe bf 8b be e3 b1 1f bd 9a a4 89 bd 81 e8 13 3f
       -0.27294916 -0.038988005 -0.067208484 0.5777665
000060 30 55 0d 3f e0 d6 3a be ea 76 cc 3d d9 0a 14 3e
       0.5520811 -0.18246031 0.099836186 0.14457263
000070 ff f6 16 be 83 9a 61 be f4 67 ba bd 0d db 5c be
       -0.14742659 -0.22031598 -0.09101859 -0.21567936
000080 c1 c4 8c bc 25 ad 0b 3e d0 eb 12 3d 24 b6 64 be
       -0.017183663 0.13640268 0.03586942 -0.22335106
000090 77 14 dc 3e 2c 61 55 3e f2 a0 d2 3d 86 f1 70 bc
       0.42984363 0.2083785 0.10284604 -0.014706021
0000a0 cc 83 33 3e 60 48 01 3d aa 93 77 3b 9d 92 15 3f
       0.17530745 0.031563163 0.0037777224 0.5842684
0000b0 a7 2c aa 3e bc ca 0f 3f 4d 59 35 3e b5 37 16 3e
       0.33237192 0.56168723 0.17709847 0.14669688
0000c0 84 82 fb 3d 37 8c 95 bd 6c c0 0c be d1 3d 3d 3e
       0.12280753 -0.073021345 -0.13745278 0.18480612
0000d0 a8 ce 59 be 9e ef 42 bc e1 3f 1b 3e 93 d5 fa bd
       -0.2127024 -0.0118979495 0.15161087 -0.12247767
0000e0 e1 ca a5 3c e4 bf 53 3e 0c 9d 23 3e dd b3 ad bc
       0.020238342 0.20678669 0.15977877 -0.02120393
0000f0 dc a2 4c 3e 6d db 4e be 73 24 98 3e 2c 71 80 3e
       0.19984001 -0.20200892 0.2971531 0.25086343

fc3.weight f4 [4, 64]
000000 a9 4b 7b 3e 95 60 00 be 48 dc 4d 3e 67 ab 4c bd
       0.24540581 -0.12536843 0.20103562 -0.04996815
000010 38 78 09 3f 74 4f a3 bd 72 4f 46 be a0 03 8b 3d
       0.53699064 -0.07974139 -0.19366243 0.06787801
000020 53 2c 49 3e 6a bd 82 3e 88 61 8e be d9 7e f8 bd
       0.19645815 0.25535136 -0.27808785 -0.12133569
000030 40 e9 8d 3e 9d 4b ce be bf b8 64 3e b1 ac 92 bd
       0.27717018 -0.40292063 0.223361 -0.071618445
000040 13 38 48 be bb 56 53 3e b1 bd b3 bc 77 aa 28 3e
       -0.1955264 0.20638554 -0.021941038 0.16471277
000050 2e 15 2c be 9a d8 ac bb 47 91 2a bf a3 08 85 3e
       -0.16804954 -0.0052748444 -0.66627926 0.25983152
000060 6c da 1b 3e 9d 61 82 3e 57 f2 0d 3e 74 6e 95 3d
       0.1522004 0.25465098 0.13861977 0.07296458
000070 d4 f4 a7 be d8 29 36 be d3 ef 90 be 09 2f 3d be
       -0.32803977 -0.177894 -0.2830797 -0.18474974
000080 61 a8 4f bc 91 b0 a3 3e 7b dc ad be 87 8c 52 be
       -0.012674422 0.31970647 -0.33957276 -0.2056142
000090 b6 09 95 3e 38 35 9d 3e 11 32 04 3f 9e db b8 bd
       0.2910897 0.30704665 0.51638895 -0.09026264
0000a0 ea 75 65 3e 7b a7 97 3e 70 9c 75 3e 83 11 5f 3e
       0.22408262 0.29619965 0.23985457 0.21784024
0000b0 9f 85 24 3e ac 25 1b 3e c0 af cc 3e 2b 31 1f 3e
       0.16066597 0.1515109 0.39977837 0.155461
0000c0 52 ed ba 3e 5d 51 30 be 6a 15 ee bd c4 54 30 3e
       0.36509186 -0.17218538 -0.11625178 0.17219836
0000d0 d1 ec 1b be 71 13 e0 be 9f 1d 77 3e 1e 6d fd bd
       -0.15227057 -0.43764833 0.24132393 -0.12374328
0000e0 4c 5a b1 bd fc ba 37 3e f6 e3 4a 3c 28 81 d7 3e
       -0.08659801 0.17942423 0.012383452 0.42090726
0000f0 6e 41 55 3e 2a 56 ee bd 5e fe dd 3d 89 3f f4 3d
       0.2082574 -0.11637528 0.10839532 0.11926181
000100 41 5b 8f 3e 4c b2 f6 bd d8 bb 2e 3e bb 8f 6b bd
       0.2799931 -0.12045726 0.17063844 -0.05751012
000110 50 e0 1a 3f b8 be b6 bd a1 79 90 be 3f 71 2e 3e
       0.60498524 -0.089230955 -0.28217795 0.17035387
000120 b8 da a7 3d d7 ae c9 3e fb bc 22 3e 97 96 d7 3c
       0.08196014 0.39391205 0.15892403 0.026316924
000130 e4 c0 d9 3c a3 8f 7b be f1 f3 af 3e 80 37 f1 3d
       0.026581235 -0.24566512 0.343658 0.11778164
000140 25 6b 62 be fc e7 ae 3d 59 db 16 3d 58 49 71 3e
       -0.22111185 0.08540341 0.03683028 0.23563135
000150 2e 4e b1 bd f1 ed be 3d 14 1b ad 3a 0c 63 22 3e
       -0.0865749 0.093227275 0.0013206922 0.15858096
000160 2d 78 45 3e 90 6b cd 3d 6c 70 20 3e 6e b1 f2 3d
       0.19284125 0.100302815 0.15667886 0.11850248
000170 83 5c 32 be bb ab 26 be eb 46 8a be f4 a1 20 be
       -0.17418103 -0.16276447 -0.2700723 -0.1568678
000180 20 bc 4a bd 66 cb 61 3e 65 b2 c4 be 75 b7 8b 3c
       -0.049495816 0.22050247 -0.38417354 0.017055253
000190 18 1c 5a 3e 06 76 93 3e 07 d1 ce 3e 49 b9 bd 3e
       0.2129978 0.28800982 0.4039385 0.37055424
0001a0 ba 7d 31 3e e1 ef 5f 3e 21 20 93 3e 75 c3 5b 3e
       0.17333117 0.2186885 0.2873545 0.2146128
0001b0 92 c3 81 3d b1 89 49 3e 09 12 ba 3e 84 ad a5 3c
       0.0633613 0.19681431 0.36341885 0.02022434
0001c0 ee 10 b4 3e e0 4e 01 be bc 6f 88 3d 13 d7 47 3e
       0.35169166 -0.12627745 0.06661937 0.19515638
0001d0 86 ea 10 be b2 b5 af be 00 26 91 3e cc 06 3f be
       -0.14151964 -0.3431831 0.28349304 -0.18654937
0001e0 91 11 c4 3d 97 59 33 3e 19 5e 10 3e df fe ae 3e
       0.09573663 0.17514645 0.14098395 0.34178826
0001f0 b0 33 58 3e 9b dc 34 be e2 83 24 3e fd cd 1b 3e
       0.21113467 -0.1766228 0.16065934 0.15215297
000200 fa 63 69 3e fd 2e f8 be 02 59 aa 3d 12 12 ef 3c
       0.22792044 -0.4847335 0.08317758 0.029183421
000210 97 13 85 be c9 27 d1 bd ce 40 6f 3d 27 69 01 3d
       -0.25991508 -0.102126665 0.058411412 0.03159442
000220 17 93 bc 3d 65 cc ba 3e f2 7a 9e 3e 40 13 39 3e
       0.09207743 0.36484066 0.30953175 0.1807375
000230 dc a8 24 bf 9d 05 80 be 0d 8a ec 3e ab 59 96 3e
       -0.6432016 -0.25004283 0.46199074 0.29365286
000240 5b c2 ed bd cc 5f 1d 3e 91 a7 0e 3e 6e 7b ff 3d
       -0.11609336 0.15368575 0.13931109 0.12474714
000250 d4 68 7f 3e 5a 18 22 3e fd e4 a1 be 7e cd 48 3e
       0.24942333 0.15829602 -0.31620017 0.19609639
000260 a8 f5 33 3e 6b 51 72 be 8a cc 95 bd ff eb 90 3e
       0.17574179 -0.23663871 -0.07314403 0.2830505
000270 36 d2 09 3d 35 f6 3c be 6a fe a6 be 71 53 b9 be
       0.03364774 -0.18453296 -0.32615978 -0.36196473
000280 4b 56 4b 3d a6 83 3c 3e 5d 17 bd be 61 a5 2d bd
       0.049642842 0.18409595 -0.36931887 -0.042394046
000290 d3 ac 94 3e 76 5d 23 3e c4 21 e4 3e 31 df 3d 3e
       0.29038104 0.15953621 0.4455701 0.18542172
0002a0 64 6e ae 3d bf ad fa 3d 85 66 6e be 6a 8b 33 3e
       0.08517149 0.12240171 -0.23281296 0.17533651
0002b0 ac 1d 54 3e 5e 4b 39 3e e6 3b d4 3d 61 ac a9 3c
       0.20714444 0.18095157 0.10362987 0.02071208
0002c0 63 57 fe 3e 50 88 9b be 3d b8 a8 bd e3 2b 19 3e
       0.49676046 -0.30377436 -0.08238266 0.14958148
0002d0 55 da e8 3c 25 1f 00 bf f1 eb ef 3e eb 33 3f be
       0.028424421 -0.5004752 0.46859697 -0.18672149
0002e0 57 5f 91 3e 12 3d 91 3e fb 55 87 3e 5d 8f b5 3e
       0.2839305 0.28366905 0.26432785 0.3546094
0002f0 3f d7 b2 3e 3d 80 b6 3e ad d7 cd 3d d2 64 7b 3e
       0.34929845 0.35644713 0.100509025 0.24550179
000300 f6 1a 0d 3e e0 ac 00 3e f1 22 a6 3d 7d 62 a7 3c
       0.13779816 0.12565947 0.08112133 0.020432705
000310 49 0c 1f 3f c6 9c 82 3e f5 c9 80 bd 6b 2d 2d 3e
       0.6212812 0.25510234 -0.0628852 0.16911857
000320 47 5b 93 3d 6a da 95 3e b6 cb 0c bf 90 d5 2d 3e
       0.07195144 0.292682 -0.5499834 0.16975999
000330 5c c5 94 3e cf db 19 bf 1c f6 92 3e 21 77 a9 3d
       0.29056823 -0.60101026 0.28703392 0.08274675
000340 d1 36 9d be e3 2c 48 3e 08 09 d0 bd a1 f9 3b 3e
       -0.30705884 0.19548373 -0.101579726 0.18356945
000350 2c a6 a2 3e 50 12 ac bd b0 38 e7 3d 9c dd 80 3e
       0.31767404 -0.0840193 0.11290109 0.25169075
000360 97 61 4a 3e 15 69 99 bd ee fc bd 3e c2 3f ab 3d
       0.1976379 -0.07490746 0.37107033 0.0836177
000370 b0 18 91 bd 67 8e 93 be c5 d4 c1 be ce 24 55 be
       -0.07084787 -0.28819582 -0.37857643 -0.20814821
000380 ec 00 88 3d a7 60 fc 3d 5a d7 4c be 46 e8 b4 3d
       0.06640801 0.123231225 -0.20004025 0.08833365
000390 ae 34 49 3e e2 0d 57 3e f1 a9 a1 3e 39 d8 b6 be
       0.19649002 0.2100139 0.31574968 -0.3571184
0003a0 62 43 04 3e 03 13 c7 3d 9c 07 a8 be 08 9c 22 3e
       0.1291633 0.09720423 -0.32818305 0.15879834
0003b0 51 e4 fa 3d 01 fc 82 3e 7d 04 41 3e 33 f9 ee 3d
       0.12250579 0.2558289 0.18849368 0.11668625
0003c0 27 08 90 be 94 27 11 be c7 09 14 3c bf 40 4a 3e
       -0.2813122 -0.14175254 0.009035534 0.19751261
0003d0 e6 b8 ae be 46 48 94 3d 2a e1 9e 3e 2f f9 5b be
       -0.3412544 0.072403476 0.31031162 -0.21481775
0003e0 34 52 ef 3e 02 df 97 3e 8e db 17 3e dc 71 09 3f
       0.46742404 0.2966233 0.14829847 0.5368936
0003f0 23 dd 58 3e 99 ff 5d 3d f7 38 2f 3e db 07 76 3e
       0.21178107 0.054198835 0.17111574 0.24026434

fc3.bias f4 [4]
000000 9d 8a 9e 3e 4e bf ce 3e 75 e3 bc 3e 93 c8 af 3e
       0.3096513 0.4038033 0.36892286 0.34332713
